model/vfe_dim4ep35.onnx (onnx, 16292 bytes, 5 tensors)

vfe_layers.0.norm.weight f4 [64]
0	0x3f529d4a	0.82271254
1	0x3f3334c8	0.7000241
2	0x3fad797d	1.35527
3	0x406e214a	3.7207818
4	0x404e6cf0	3.225399
5	0xbb86aaee	-0.004109732
6	0x40425261	3.036278
7	0x406a1655	3.657613
8	0xbc03fe5f	-0.008056252
9	0x402f46f2	2.7387052
10	0x3f0ccd28	0.55000544
11	0x3fa0643a	1.2530587
12	0xbbba5a82	-0.005687059
13	0x3ed645e5	0.418502
14	0x3eda0758	0.42583728
15	0x3f69856d	0.91219217
16	0xbc8c4ed8	-0.01712744
17	0xbbd790e3	-0.006578551
18	0x409642bc	4.6956463
19	0x3fca92e4	1.5826077
20	0x3f47f9dc	0.7811563
21	0x4006c65d	2.1058571
22	0x3f4be96e	0.7965306
23	0x3fcc0cb9	1.5941383
24	0x3f2468c3	0.64222354
25	0x3f567505	0.8377231
26	0x3f47075c	0.77745605
27	0x3ffe9dcb	1.9891905
28	0xbceb1582	-0.02869678
29	0xbb6d3c2d	-0.0036199198
30	0x3f56e209	0.8393865
31	0x3be61ecc	0.0070227142
32	0x3dd675d8	0.10471696
33	0xbbb39abd	-0.0054810927
34	0x3ffa7f85	1.9570166
35	0x3eb46a78	0.3523748
36	0xbc8115a9	-0.015757399
37	0x3fecbf2a	1.8495839
38	0xbc1fce8a	-0.009753833
39	0xbc784d4e	-0.01515515
40	0x3fda7f3d	1.707008
41	0x3cc490fb	0.023994913
42	0x3f69c92e	0.913226
43	0x3f525f69	0.82176834
44	0xbc091ebf	-0.008369147
45	0x3e72ec71	0.23723008
46	0xbb96425d	-0.004585548
47	0x400588d9	2.0864775
48	0x40435466	3.0520263
49	0xbc695f20	-0.014243871
50	0x3f828337	1.0196294
51	0x3e095dd4	0.13414699
52	0x4005095a	2.0786958
53	0x3f4ecfa9	0.80785614
54	0x4004dfd4	2.0761614
55	0x3f78a76c	0.97130466
56	0xbc788a80	-0.01516974
57	0x4000fcb4	2.0154238
58	0x3f8a6f33	1.0815185
59	0xc0c7dd45	-6.2457604
60	0xbb87ea0f	-0.004147775
61	0x3f9f99eb	1.2468847
62	0x400ac097	2.1680048
63	0xbc083067	-0.008312321

vfe_layers.0.norm.bias f4 [64]
0	0xbc411310	-0.01178433
1	0xbc302889	-0.010751852
2	0xbea21c30	-0.3166213
3	0x3d208b7c	0.039195523
4	0x3be15b97	0.0068773734
5	0xbc5d4693	-0.013505596
6	0xbd1f2b48	-0.038859636
7	0x3d0a1c4d	0.033718396
8	0xbe5b0a20	-0.21390581
9	0x3cbc355b	0.02297466
10	0xc0466fd2	-3.100575
11	0x3e0a9e2c	0.135369
12	0xbcfa3c67	-0.03054638
13	0xc02333ec	-2.550044
14	0xc04dc46e	-3.215114
15	0xbc1ba7a2	-0.009500416
16	0xbcc55b2d	-0.024091328
17	0xbdb49891	-0.08818162
18	0x3aa0a3ed	0.0012255885
19	0xbca1ac84	-0.019735582
20	0xbc3fc65f	-0.01170501
21	0x3b996c86	0.0046821265
22	0xbcebec60	-0.028799236
23	0xbdd08e4d	-0.10183392
24	0xbd239f3b	-0.039946776
25	0xbc2a5c09	-0.010397919
26	0xbd8f5d5e	-0.0700023
27	0xbd1f215b	-0.03885017
28	0xbd5217b2	-0.05129213
29	0xbe61c544	-0.22047907
30	0xbc6e1720	-0.014531881
31	0xbc2a9c38	-0.010413222
32	0xbff5993e	-1.9187391
33	0xbcf183b1	-0.02948174
34	0x3cbd020a	0.023072261
35	0xbff4da9b	-1.9129213
36	0xbd656d3f	-0.05601239
37	0xbbfe0092	-0.007751533
38	0xbd9279c3	-0.071521305
39	0xbc0819c0	-0.0083069205
40	0x3e77877f	0.24172781
41	0xbc0cad4a	-0.008586237
42	0xbcda4be2	-0.026647512
43	0xbd19ede2	-0.03758038
44	0xbd7e52ed	-0.062090803
45	0xbfccb54a	-1.5992825
46	0xbd84793b	-0.064684354
47	0xbd25b145	-0.04045226
48	0x3cc6761d	0.024226243
49	0xbc600afa	-0.013674492
50	0xbcfb609b	-0.030685714
51	0xbf96c8f4	-1.1780076
52	0xbcc0ef01	-0.023551466
53	0xbc3d2677	-0.011544815
54	0xbd0a3687	-0.033743408
55	0xbdd1e674	-0.102490336
56	0xbe47ba48	-0.19504654
57	0xc0a820c8	-5.2540016
58	0xbd050ec8	-0.0324848
59	0x3ec4d3e1	0.384429
60	0xbdc1386a	-0.09434588
61	0x3b46a064	0.0030308003
62	0xbe3f0585	-0.1865445
63	0xbd13403d	-0.035949934

vfe_layers.0.norm.running_mean f4 [64]
0	0xbf6267af	-0.8843946
1	0xbf662cb1	-0.89911944
2	0x3fa227e8	1.2668428
3	0x42062abf	33.541744
4	0x3d65f4b1	0.05614156
5	0x4087ad23	4.239885
6	0xbe1593f4	-0.14607221
7	0x4206cbb7	33.69894
8	0x412caf1b	10.79275
9	0x3dcfb72e	0.10142361
10	0x3edf96eb	0.4366983
11	0x401ad291	2.419102
12	0x3ff6c8e7	1.928006
13	0x3f8466dc	1.034389
14	0x3e56461c	0.20925182
15	0xbed3f73a	-0.41399556
16	0x40b2c984	5.587099
17	0xbe937f12	-0.28807884
18	0x3f95d7bc	1.1706462
19	0xbf0f735a	-0.5603539
20	0xbebd15e6	-0.3693077
21	0x3b9e2548	0.0048262216
22	0xbfbf196f	-1.4929637
23	0x3e943af1	0.2895122
24	0xbfd6e8e4	-1.6789823
25	0xbe89cf2a	-0.26915866
26	0xbfb06a5e	-1.3782461
27	0xbe399d54	-0.18126422
28	0x3d15e292	0.036593027
29	0x4131cf02	11.113039
30	0xbe99c18c	-0.30030477
31	0xbf946119	-1.1592132
32	0x3e53b8f5	0.20676024
33	0x3f9aa9ef	1.208311
34	0x42027819	32.617283
35	0x3f102536	0.5630678
36	0x409f6969	4.9816175
37	0xbd5f4cf1	-0.054516736
38	0x403ed909	2.9819968
39	0x405d7434	3.4602175
40	0xbfad1750	-1.352274
41	0xc04b23d7	-3.1740625
42	0xbf3a27af	-0.727168
43	0xbf9e81bc	-1.2383342
44	0x4066c460	3.6057358
45	0x3f4846ff	0.7823333
46	0xbbf929e1	-0.0076038693
47	0x3d11dc9a	0.035610773
48	0x3e62d50f	0.22151588
49	0x403563be	2.8342128
50	0xbe6828a6	-0.22671756
51	0x3f3efa7a	0.74600947
52	0xbe61b99d	-0.22043462
53	0xbf5dd83d	-0.8665808
54	0xbdb37aaa	-0.08763631
55	0x3eeca9cf	0.46223304
56	0x40cba371	6.3637013
57	0xbecb918c	-0.3975948
58	0xbe4018e7	-0.187595
59	0xc0519f07	-3.2753313
60	0x41b2708b	22.304953
61	0xbb9a6999	-0.0047122953
62	0xbfba73f9	-1.4566642
63	0x407435d0	3.8157845

vfe_layers.0.norm.running_var f4 [64]
0	0x4605ba21	8558.532
1	0x4616b953	9646.331
2	0x43fd9149	507.13504
3	0x4bc9deaf	2.6459486e+07
4	0x430fd143	143.81743
5	0x48ca1584	413868.12
6	0x4394372c	296.43103
7	0x4bcbb184	2.6698504e+07
8	0x4a26c850	2.732564e+06
9	0x43804431	256.53275
10	0x456e4278	3812.1543
11	0x435ee1f9	222.8827
12	0x47a010ac	81953.34
13	0x4309c892	137.78348
14	0x4591935b	4658.4194
15	0x460c9aa4	8998.66
16	0x4930c1fc	723999.75
17	0x44765ea2	985.47864
18	0x46e955dc	29866.93
19	0x440fcd46	575.2074
20	0x45dfb1a3	7158.2046
21	0x43b71fad	366.24747
22	0x46176d44	9691.316
23	0x43a4dc9a	329.72345
24	0x46032d99	8395.399
25	0x45bba298	6004.324
26	0x461d3dbe	10063.436
27	0x43f90f85	498.12125
28	0x44c9cb75	1614.358
29	0x4a303e8c	2.887587e+06
30	0x46164db0	9619.422
31	0x46fa77d0	32059.906
32	0x44ed47a7	1898.2391
33	0x4700f5b1	33013.69
34	0x4bbeea6b	2.5023702e+07
35	0x441f1ac4	636.4182
36	0x490c4115	574481.3
37	0x43c8a0e3	401.25693
38	0x4847d610	204632.25
39	0x4887d476	278179.7
40	0x440726e9	540.608
41	0x48734cce	249139.22
42	0x45e66766	7372.925
43	0x45c13d88	6183.6914
44	0x48917203	297872.1
45	0x42dc7136	110.221115
46	0x44e1f7b9	1807.7413
47	0x44043381	528.80475
48	0x4420bf6b	642.9909
49	0x483316b7	183386.86
50	0x45ca5bd6	6475.4795
51	0x42a369c4	81.70657
52	0x43da18ab	436.19272
53	0x45dde93a	7101.1533
54	0x42b217ca	89.04646
55	0x445742a5	861.0413
56	0x4964b18d	936728.8
57	0x45acc99f	5529.2026
58	0x44e38ffd	1820.4996
59	0x48a44294	336404.62
60	0x4b324b3e	1.168467e+07
61	0x43d584c9	427.03738
62	0x43d379e9	422.95242
63	0x48a1c66d	331315.4

onnx::MatMul_15 f4 [10, 64]
0	0xbf010f15	-0.5041364
1	0x3e4e66ce	0.20156404
2	0x3c27d9c1	0.010244788
3	0x3b2351ab	0.0024920504
4	0x3a6b7ab7	0.00089828245
5	0x3c4f6bfc	0.012660023
6	0xb866b56e	-5.5005243e-05
7	0xbaea45fd	-0.0017873641
8	0x3c9fded5	0.019515434
9	0x3b33f4eb	0.0027459215
10	0x3f0c25c0	0.547451
11	0x38d6db65	0.000102451806
12	0xbacf3e4c	-0.0015811413
13	0x3d701741	0.058615927
14	0x3dae452c	0.08509287
15	0xbccb04b1	-0.02478251
16	0x3c2123e0	0.009835213
17	0xbdbd32f7	-0.092382364
18	0xbe5145c5	-0.20436771
19	0xb890e85c	-6.9097354e-05
20	0x3f0e33eb	0.5554797
21	0xbaeb8c18	-0.0017970828
22	0x3f000dcd	0.5002106
23	0x3b043d37	0.0020178088
24	0x3e84fb2e	0.25972885
25	0x3ef5a611	0.4797826
26	0xbee5597a	-0.44794828
27	0x3a39ee4a	0.0007092698
28	0xbbe54f40	-0.0069979727
29	0xbaa5394e	-0.0012605579
30	0x3eed689c	0.46368873
31	0xbabbf97a	-0.0014341318
32	0xbecee6de	-0.40410513
33	0x3b7a81aa	0.0038224258
34	0xb9960781	-0.0002861582
35	0xbe974826	-0.29547232
36	0xbb9d519c	-0.0048009884
37	0xb7219fdb	-9.633567e-06
38	0x3be3f501	0.006956697
39	0xbca77277	-0.020440323
40	0xbb656433	-0.003500235
41	0x3be37062	0.0069408873
42	0xbe150f28	-0.14556563
43	0xba70f3aa	-0.0009191582
44	0xbc145936	-0.009054473
45	0xbeac5f84	-0.33666623
46	0x3ce1eb33	0.027577972
47	0xbb7ad945	-0.0038276475
48	0x3b68e148	0.0035534669
49	0x3bed4c09	0.00724173
50	0xbe3a1d51	-0.18175246
51	0x3ef1fd6b	0.47263655
52	0x3b2cd305	0.0026370895
53	0xbf362ba9	-0.7116037
54	0x3b2e2333	0.0026571273
55	0xbd79eb30	-0.061015308
56	0x3d602e57	0.054731693
57	0x3f090dad	0.5353649
58	0x3deb47c5	0.11488298
59	0x3a1f3941	0.00060739
60	0x3d5283fc	0.0513954
61	0xbc2f2f15	-0.010692378
62	0x3a7492aa	0.0009329716
63	0x3c63b536	0.0138981845
64	0x3f001840	0.50037
65	0xbf14dbfc	-0.5814817
66	0x3b97dcb7	0.0046344656
67	0xba9eeb1f	-0.0012124515
68	0x3ab9e444	0.0014182408
69	0xbb986763	-0.0046509965
70	0x399f582b	0.00030392534
71	0xbb85df1c	-0.0040854346
72	0x3c096434	0.008385707
73	0xb9b8bf4c	-0.00035237742
74	0x3eb1c49a	0.34720308
75	0x3ad65a6a	0.001635385
76	0xbc761200	-0.01501894
77	0xbeac2cbf	-0.3362789
78	0xbee0d77d	-0.43914405
79	0x3f2250be	0.6340445
80	0x3c19430a	0.009354362
81	0x3e534da6	0.2063509
82	0xbe879783	-0.26482782
83	0x3a8dde71	0.0010823739
84	0xbe1d574a	-0.1536533
85	0x3a986a2e	0.0011628324
86	0x3d857e52	0.06518234
87	0xbbc93b11	-0.0061410745
88	0xbe7dcfd4	-0.24786311
89	0x3f1e614c	0.61867213
90	0xbd2c8a91	-0.042124335
91	0xbb57b6af	-0.0032915284
92	0xbe0b08fc	-0.13577646
93	0x3c8a813c	0.016907327
94	0xbf0d2985	-0.5514148
95	0xbc7b2146	-0.015327757
96	0xbf1e47d9	-0.6182838
97	0xbabda780	-0.0014469475
98	0xbb2115b6	-0.002457959
99	0x3f17c727	0.5928826
100	0xbc2b0046	-0.010437077
101	0xbb81c2ba	-0.003959981
102	0xbba584e4	-0.005051242
103	0x3bb4b239	0.00551441
104	0x39427808	0.00018545997
105	0x3c8ae79d	0.016956145
106	0xbf243756	-0.64146936
107	0x3edb3541	0.42814067
108	0xbc1a82d0	-0.009430602
109	0x3e5a2d6c	0.2130639
110	0xbd42fd6c	-0.047604963
111	0xbb3920cd	-0.002824831
112	0xbb68f998	-0.003554916
113	0xbb8739e0	-0.0041267723
114	0x3e8fdd67	0.28098604
115	0xbe70784a	-0.23483387
116	0x3b69d4d6	0.0035679839
117	0xbe3e2167	-0.1856743
118	0x397732e0	0.00023574708
119	0x3ca2a744	0.01985515
120	0xbd9ba2ea	-0.07599433
121	0xbf0082d3	-0.5019962
122	0x3cb28915	0.021793881
123	0x3adc8d31	0.0016826746
124	0x3d0af89a	0.03392849
125	0x3bd2ae40	0.0064294636
126	0xbae3490e	-0.0017340498
127	0xbd4bb77e	-0.04973554
128	0xbf3f6c05	-0.747742
129	0xbf054929	-0.5206476
130	0x40a2b1c4	5.0842
131	0x3e5abea0	0.2136178
132	0xbf6a77d4	-0.91589093
133	0x3c6f0a0f	0.0145898005
134	0x3f258261	0.6465207
135	0x3e72637e	0.23670766
136	0x3e5c2c30	0.21501231
137	0xbfb81b82	-1.4383395
138	0x3e667541	0.22505666
139	0x40c324df	6.098251
140	0x3e4588f3	0.19290523
141	0x403abe43	2.9178627
142	0xbf10c597	-0.565515
143	0x3f3caed6	0.7370428
144	0xbd61502b	-0.055008095
145	0xbfa8f83f	-1.3200759
146	0x3ecbe2ee	0.3982157
147	0xbf4eab3f	-0.8073005
148	0x3f224be5	0.63397056
149	0xbf3950b5	-0.72388774
150	0xc00d250f	-2.2053869
151	0x3fdb5e5c	1.7138171
152	0xc02577bd	-2.5854332
153	0x3f02b61a	0.51059115
154	0xbfc4248d	-1.5323654
155	0xbd354210	-0.044252455
156	0xbf092487	-0.5357136
157	0x3d266bef	0.040630277
158	0x3f983e86	1.1894081
159	0x3e3d1e4b	0.18468587
160	0xbe3cb509	-0.18428434
161	0x3e47c2f1	0.19507958
162	0x3e63f241	0.22260381
163	0x3fddeeec	1.7338538
164	0x3d4b4cd3	0.049633812
165	0xbe082597	-0.1329559
166	0xbe3b5dee	-0.1829755
167	0x3e447912	0.1918681
168	0xc02abcec	-2.6677809
169	0x3e6a8b89	0.22904791
170	0x3c3027fe	0.010751722
171	0xbfcab197	-1.5835446
172	0xbe0c176e	-0.13680813
173	0x40197009	2.397463
174	0xbf4025b3	-0.75057524
175	0x3f1b3e36	0.606418
176	0xbe275a5c	-0.16343063
177	0xbbd63a85	-0.006537738
178	0x3f4f6e56	0.81027734
179	0x40167262	2.3507314
180	0xbeeaf341	-0.45888713
181	0xbf766905	-0.96254
182	0x3eedecd0	0.46469736
183	0x400cd9d0	2.2007942
184	0x3d434b65	0.047679324
185	0xbff546d1	-1.9162236
186	0x3e38cca7	0.18046819
187	0x3f880d1e	1.0629003
188	0xbd21a25d	-0.039461482
189	0x3e287fe4	0.16455036
190	0xc0a861af	-5.2619243
191	0xbd6403a1	-0.055667523
192	0xbf130c2a	-0.57440436
193	0xbf1c4cd1	-0.6105471
194	0xbe0d70b7	-0.13812529
195	0x41ffc6c9	31.972063
196	0xbd9bf595	-0.076152004
197	0x407fe866	3.9985595
198	0xbdd8eb21	-0.10591722
199	0x42007684	32.115738
200	0x41246423	10.274447
201	0xbdcc4b51	-0.09975303
202	0x3ec39f55	0.38207498
203	0xbda8642e	-0.08222233
204	0x3fe3c068	1.7793093
205	0x3d8ab33c	0.067724675
206	0x3ed94e70	0.42442656
207	0xbf16cec0	-0.58909225
208	0x40a93c5c	5.288618
209	0x3e476e30	0.19475627
210	0x3f894cb5	1.0726534
211	0xbe17a2dd	-0.14808221
212	0xbf066149	-0.52492195
213	0xbdf51542	-0.11966945
214	0xbf1c2cbc	-0.6100576
215	0xbde553c1	-0.111976154
216	0xbf11cce2	-0.5695325
217	0xbef59cb3	-0.47971115
218	0xbf1fbea9	-0.624003
219	0xbe0dd32b	-0.13850085
220	0x3e7fab31	0.24967648
221	0x4128fd71	10.561875
222	0xbf1c26cb	-0.60996693
223	0xbf8e73aa	-1.1129048
224	0x3e896e31	0.26841882
225	0x3f908d7c	1.1293178
226	0x41f8bd3a	31.092396
227	0x3e1c7cf8	0.15282047
228	0x4096c037	4.7109637
229	0xbdfb50ba	-0.12271257
230	0x4033f1f6	2.8116431
231	0x4051ce3f	3.2782133
232	0xbe126617	-0.14296757
233	0xc0468e23	-3.1024253
234	0xbf085070	-0.5324774
235	0xbef928c9	-0.4866393
236	0x40591a60	3.3922348
237	0x3d74e643	0.059789907
238	0x3e875042	0.2642842
239	0xbe10577e	-0.14095876
240	0x3e2161ed	0.15760012
241	0x402a58fe	2.6616817
242	0xbf001f42	-0.50047696
243	0x3d3cd0f2	0.046097703
244	0xbe03afe1	-0.12860061
245	0xbf05b752	-0.5223285
246	0xbd706435	-0.058689315
247	0xbe396c13	-0.18107633
248	0x40c07ff6	6.01562
249	0x3eebdadf	0.46065423
250	0xbe87c5ca	-0.2651809
251	0xc066af30	-3.6044426
252	0x41a9f84d	21.24624
253	0xbe045839	-0.1292428
254	0x3dffde81	0.12493611
255	0x4064f75d	3.5775979
